…
es = transformer_weights.meta[\"categories\"]\n```\n:::\n\n\n::: {.callout-tip}\nMore info about Vision Transformer implementation in `torchvision` [here](https://docs.pytorch.org/vision/stable/models/generated/torchvision.models.vit_b_16.html)\n:::\n\n---\n\n- [ ] Load the Inception V3 model using the pre-trained weights `inception_weights`\n\n::: {#af45d02d .cell execution_count=3}\n``` {.python .cell-code}\ndl_model = models.vit_b_16(transformer_weights, progress=True)\n\ndl_model.eval()\n```\n\n::: {.cell-output .cell-output-display execution_count=3}\n```\nVisionTransformer(\n  (conv_proj): Conv2d(3, 768, kernel_size=(16, 16), stride=(16, 16))\n  (encoder): Encoder(\n    (dropout): Dropout(p=0.0, inplace=False)\n    (layers): Sequential(\n      (encoder_layer_0): EncoderBlock(\n        (ln_1): LayerNorm((768,), eps=1e-06, elementwise_affine=True)\n        (self_attention): MultiheadAttention(\n          (out_proj): NonDynamicallyQuantizableLinear(in_features=768, out_features=768, bias=True)\n        )\n        (dropout): Dropout(p=0.0, inplace=False)\n        (ln_2): LayerNorm((768,), eps=1e-06, elementwise_affine=True)\n        (mlp): MLPBlock(\n          (0): Linear(in_features=768, out_features=3072, bias=True)\n          (1): GELU(approximate='none')\n          (2): Dropout(p=0.0, inplace=False)\n          (3): Linear(in_features=3072, out_features=768, bias=True)\n          (4): Dropout(p=0.0, inplace=False)\n        )\n      )\n      (encoder_layer_1): EncoderBlock(\n        (ln_1): LayerNorm((768,), eps=1e-06, elementwise_affine=True)\n        (self_attention): MultiheadAttention(\n          (out_proj): NonDynamicallyQuantizableLinear(in_features=768, out_features=768, bias=True)\n        )\n        (dropout): Dropout(p=0.0, inplace=False)\n        (ln_2): LayerNorm((768,), eps=1e-06, elementwise_affine=True)\n        (mlp): MLPBlock(\n          (0): Linear(in_features=768, out_features=3072, bias=True)\n          (1): GELU(approximate='none')\n          (2): Dropout(p=0.0, inplace=False)\n          (3): Linear(in_features=3072, out_features=768, bias=True)\n          (4): Dropout(p=0.0, inplace=False)\n        )\n      )\n      (encoder_layer_2): EncoderBlock(\n        (ln_1): LayerNorm((768,), eps=1e-06, elementwise_affine=True)\n        (self_attention): MultiheadAttention(\n          (out_proj): NonDynamicallyQuantizableLinear(in_features=768, out_features=768, bias=True)\n        )\n        (dropout): Dropout(p=0.0, inplace=False)\n        (ln_2): LayerNorm((768,), eps=1e-06, elementwise_affine=True)\n        (mlp): MLPBlock(\n          (0): Linear(in_features=768, out_features=3072, bias=True)\n          (1): GELU(approximate='none')\n          (2): Dropout(p=0.0, inplace=False)\n          (3): Linear(in_features=3072, out_features=768, bias=True)\n          (4): Dropout(p=0.0, inplace=False)\n        )\n      )\n      (encoder_layer_3): EncoderBlock(\n        (ln_1): LayerNorm((768,), eps=1e-06, elementwise_affine=True)\n        (self_attention): MultiheadAttention(\n          (out_proj): NonDynamicallyQuantizableLinear(in_features=768, out_features=768, bias=True)\n        )\n        (dropout): Dropout(p=0.0, inplace=False)\n        (ln_2): LayerNorm((768,), eps=1e-06, elementwise_affine=True)\n        (mlp): MLPBlock(\n          (0): Linear(in_features=768, out_features=3072, bias=True)\n          (1): GELU(approximate='none')\n          (2): Dropout(p=0.0, inplace=False)\n          (3): Linear(in_features=3072, out_features=768, bias=True)\n          (4): Dropout(p=0.0, inplace=False)\n        )\n      )\n      (encoder_layer_4): EncoderBlock(\n        (ln_1): LayerNorm((768,), eps=1e-06, elementwise_affine=True)\n        (self_attention): MultiheadAttention(\n          (out_proj): NonDynamicallyQuantizableLinear(in_features=768, out_features=768, bias=True)\n        )\n        (dropout): Dropout(p=0.0, inplace=False)\n        (ln_2): LayerNorm((768,), eps=1e-06, elementwise_affine=True)\n        (mlp): MLPBlock(\n          (0): Linear(in_features=768, out_features=3072, bias=True)\n          (1): GELU(approximate='none')\n          (2): Dropout(p=0.0, inplace=False)\n          (3): Linear(in_features=3072, out_features=768, bias=True)\n          (4): Dropout(p=0.0, inplace=False)\n        )\n      )\n      (encoder_layer_5): EncoderBlock(\n        (ln_1): LayerNorm((768,), eps=1e-06, elementwise_affine=True)\n        (self_attention): MultiheadAttention(\n          (out_proj): NonDynamicallyQuantizableLinear(in_features=768, out_features=768, bias=True)\n        )\n        (dropout): Dropout(p=0.0, inplace=False)\n        (ln_2): LayerNorm((768,), eps=1e-06, elementwise_affine=True)\n        (mlp): MLPBlock(\n          (0): Linear(in_features=768, out_features=3072, bias=True)\n          (1): GELU(approximate='none')\n          (2): Dropout(p=0.0, inplace=False)\n          (3): Linear(in_features=3072, out_features=768, bias=True)\n          (4): Dropout(p=0.0, inplace=False)\n        )\n      )\n      (encoder_layer_6): EncoderBlock(\n        (ln_1): LayerNorm((768,), eps=1e-06, elementwise_affine=True)\n        (self_attention): MultiheadAttention(\n          (out_proj): NonDynamicallyQuantizableLinear(in_features=768, out_features=768, bias=True)\n        )\n        (dropout): Dropout(p=0.0, inplace=False)\n        (ln_2): LayerNorm((768,), eps=1e-06, elementwise_affine=True)\n        (mlp): MLPBlock(\n          (0): Linear(in_features=768, out_features=3072, bias=True)\n          (1): GELU(approximate='none')\n          (2): Dropout(p=0.0, inplace=False)\n          (3): Linear(in_features=3072, out_features=768, bias=True)\n          (4): Dropout(p=0.0, inplace=False)\n        )\n      )\n      (encoder_layer_7): EncoderBlock(\n        (ln_1): LayerNorm((768,), eps=1e-06, elementwise_affine=True)\n        (self_attention): MultiheadAttention(\n          (out_proj): NonDynamicallyQuantizableLinear(in_features=768, out_features=768, bias=True)\n        )\n        (dropout): Dropout(p=0.0, inplace=False)\n        (ln_2): LayerNorm((768,), eps=1e-06, elementwise_affine=True)\n        (mlp): MLPBlock(\n          (0): Linear(in_features=768, out_features=3072, bias=True)\n          (1): GELU(approximate='none')\n          (2): Dropout(p=0.0, inplace=False)\n          (3): Linear(in_features=3072, out_features=768, bias=True)\n          (4): Dropout(p=0.0, inplace=False)\n        )\n      )\n      (encoder_layer_8): EncoderBlock(\n        (ln_1): LayerNorm((768,), eps=1e-06, elementwise_affine=True)\n        (self_attention): MultiheadAttention(\n          (out_proj): NonDynamicallyQuantizableLinear(in_features=768, out_features=768, bias=True)\n        )\n        (dropout): Dropout(p=0.0, inplace=False)\n        (ln_2): LayerNorm((768,), eps=1e-06, elementwise_affine=True)\n        (mlp): MLPBlock(\n          (0): Linear(in_features=768, out_features=3072, bias=True)\n          (1): GELU(approximate='none')\n          (2): Dropout(p=0.0, inplace=False)\n          (3): Linear(in_features=3072, out_features=768, bias=True)\n          (4): Dropout(p=0.0, inplace=False)\n        )\n      )\n      (encoder_layer_9): EncoderBlock(\n        (ln_1): LayerNorm((768,), eps=1e-06, elementwise_affine=True)\n        (self_attention): MultiheadAttention(\n          (out_proj): NonDynamicallyQuantizableLinear(in_features=768, out_features=768, bias=True)\n        )\n        (dropout): Dropout(p=0.0, inplace=False)\n        (ln_2): LayerNorm((768,), eps=1e-06, elementwise_affine=True)\n        (mlp): MLPBlock(\n          (0): Linear(in_features=768, out_features=3072, bias=True)\n          (1): GELU(approximate='none')\n          (2): Dropout(p=0.0, inplace=False)\n          (3): Linear(in_features=3072, out_features=768, bias=True)\n          (4): Dropout(p=0.0, inplace=False)\n        )\n      )\n      (encoder_layer_10): EncoderBlock(\n        (ln_1): LayerNorm((768,), eps=1e-06, elementwise_affine=True)\n        (self_attention): MultiheadAttention(\n          (out_proj): NonDynamicallyQuantizableLinear(in_features=768, out_features=768, bias=True)\n        )\n        (dropout): Dropout(p=0.0, inplace=False)\n        (ln_2): LayerNorm((768,), eps=1e-06, elementwise_affine=True)\n        (mlp): MLPBlock(\n          (0): Linear(in_features=768, out_features=3072, bias=True)\n          (1): GELU(approximate='none')\n          (2): Dropout(p=0.0, inplace=False)\n          (3): Linear(in_features=3072, out_features=768, bias=True)\n          (4): Dropout(p=0.0, inplace=False)\n        )\n      )\n      (encoder_layer_11): EncoderBlock(\n        (ln_1): LayerNorm((768,), eps=1e-06, elementwise_affine=True)\n        (self_attention): MultiheadAttention(\n          (out_proj): NonDynamicallyQuantizableLinear(in_features=768, out_features=768, bias=True)\n        )\n        (dropout): Dropout(p=0.0, inplace=False)\n        (ln_2): LayerNorm((768,), eps=1e-06, elementwise_affine=True)\n        (mlp): MLPBlock(\n          (0): Linear(in_features=768, out_features=3072, bias=True)\n          (1): GELU(approximate='none')\n          (2): Dropout(p=0.0, inplace=False)\n          (3): Linear(in_features=3072, out_features=768, bias=True)\n          (4): Dropout(p=0.0, inplace=False)\n        )\n      )\n    )\n    (ln): LayerNorm((768,), eps=1e-06, elementwise_affine=True)\n  )\n  (heads): Sequential(\n    (head): Linear(in_features=768, out_features=1000, bias=True)\n  )\n)\n```\n:::\n:::\n\n\n---\n\n- [ ] Load a sample image to predict its category\n\n::: {#0cb08424 .cell execution_count=4}\n``` {.python .cell-code}\nimport skimage\nimport matplotlib.pyplot as plt\n\nsample_im = skimage.data.rocket()\nsample_im.shape\n```\n\n::: {.cell-output .cell-output-display execution_count=4}\n```\n(427, 640, 3)\n```\n:::\
…
