…
.cell execution_count=31}\n``` {.python .cell-code}\nmodel.classifier = torch.nn.Identity()\n```\n:::\n\n\n---\n\n## Modify the model's architecture to convert it into a feature extraction *function* {.scrollable}\n\n- [ ] Set the model into *evaluation* mode. (Optional) Move the model to the GPU if available\n\n::: {#477d97c2 .cell execution_count=32}\n``` {.python .cell-code}\nif torch.cuda.is_available():\n    model.cuda()\n\nmodel.eval()\n```\n\n::: {.cell-output .cell-output-display execution_count=32}\n```\nMobileNetV3(\n  (features): Sequential(\n    (0): Conv2dNormActivation(\n      (0): Conv2d(3, 16, kernel_size=(3, 3), stride=(2, 2), padding=(1, 1), bias=False)\n      (1): BatchNorm2d(16, eps=0.001, momentum=0.01, affine=True, track_running_stats=True)\n      (2): Hardswish()\n    )\n    (1): InvertedResidual(\n      (block): Sequential(\n        (0): Conv2dNormActivation(\n          (0): Conv2d(16, 16, kernel_size=(3, 3), stride=(2, 2), padding=(1, 1), groups=16, bias=False)\n          (1): BatchNorm2d(16, eps=0.001, momentum=0.01, affine=True, track_running_stats=True)\n          (2): ReLU(inplace=True)\n        )\n        (1): SqueezeExcitation(\n          (avgpool): AdaptiveAvgPool2d(output_size=1)\n          (fc1): Conv2d(16, 8, kernel_size=(1, 1), stride=(1, 1))\n          (fc2): Conv2d(8, 16, kernel_size=(1, 1), stride=(1, 1))\n          (activation): ReLU()\n          (scale_activation): Hardsigmoid()\n        )\n        (2): Conv2dNormActivation(\n          (0): Conv2d(16, 16, kernel_size=(1, 1), stride=(1, 1), bias=False)\n          (1): BatchNorm2d(16, eps=0.001, momentum=0.01, affine=True, track_running_stats=True)\n        )\n      )\n    )\n    (2): InvertedResidual(\n      (block): Sequential(\n        (0): Conv2dNormActivation(\n          (0): Conv2d(16, 72, kernel_size=(1, 1), stride=(1, 1), bias=False)\n          (1): BatchNorm2d(72, eps=0.001, momentum=0.01, affine=True, track_running_stats=True)\n          (2): ReLU(inplace=True)\n        )\n        (1): Conv2dNormActivation(\n          (0): Conv2d(72, 72, kernel_size=(3, 3), stride=(2, 2), padding=(1, 1), groups=72, bias=False)\n          (1): BatchNorm2d(72, eps=0.001, momentum=0.01, affine=True, track_running_stats=True)\n          (2): ReLU(inplace=True)\n        )\n        (2): Conv2dNormActivation(\n          (0): Conv2d(72, 24, kernel_size=(1, 1), stride=(1, 1), bias=False)\n          (1): BatchNorm2d(24, eps=0.001, momentum=0.01, affine=True, track_running_stats=True)\n        )\n      )\n    )\n    (3): InvertedResidual(\n      (block): Sequential(\n        (0): Conv2dNormActivation(\n          (0): Conv2d(24, 88, kernel_size=(1, 1), stride=(1, 1), bias=False)\n          (1): BatchNorm2d(88, eps=0.001, momentum=0.01, affine=True, track_running_stats=True)\n          (2): ReLU(inplace=True)\n        )\n        (1): Conv2dNormActivation(\n          (0): Conv2d(88, 88, kernel_size=(3, 3), stride=(1, 1), padding=(1, 1), groups=88, bias=False)\n          (1): BatchNorm2d(88, eps=0.001, momentum=0.01, affine=True, track_running_stats=True)\n          (2): ReLU(inplace=True)\n        )\n        (2): Conv2dNormActivation(\n          (0): Conv2d(88, 24, kernel_size=(1, 1), stride=(1, 1), bias=False)\n          (1): BatchNorm2d(24, eps=0.001, momentum=0.01, affine=True, track_running_stats=True)\n        )\n      )\n    )\n    (4): InvertedResidual(\n      (block): Sequential(\n        (0): Conv2dNormActivation(\n          (0): Conv2d(24, 96, kernel_size=(1, 1), stride=(1, 1), bias=False)\n          (1): BatchNorm2d(96, eps=0.001, momentum=0.01, affine=True, track_running_stats=True)\n          (2): Hardswish()\n        )\n        (1): Conv2dNormActivation(\n          (0): Conv2d(96, 96, kernel_size=(5, 5), stride=(2, 2), padding=(2, 2), groups=96, bias=False)\n          (1): BatchNorm2d(96, eps=0.001, momentum=0.01, affine=True, track_running_stats=True)\n          (2): Hardswish()\n        )\n        (2): SqueezeExcitation(\n          (avgpool): AdaptiveAvgPool2d(output_size=1)\n          (fc1): Conv2d(96, 24, kernel_size=(1, 1), stride=(1, 1))\n          (fc2): Conv2d(24, 96, kernel_size=(1, 1), stride=(1, 1))\n          (activation): ReLU()\n          (scale_activation): Hardsigmoid()\n        )\n        (3): Conv2dNormActivation(\n          (0): Conv2d(96, 40, kernel_size=(1, 1), stride=(1, 1), bias=False)\n          (1): BatchNorm2d(40, eps=0.001, momentum=0.01, affine=True, track_running_stats=True)\n        )\n      )\n    )\n    (5): InvertedResidual(\n      (block): Sequential(\n        (0): Conv2dNormActivation(\n          (0): Conv2d(40, 240, kernel_size=(1, 1), stride=(1, 1), bias=False)\n          (1): BatchNorm2d(240, eps=0.001, momentum=0.01, affine=True, track_running_stats=True)\n          (2): Hardswish()\n        )\n        (1): Conv2dNormActivation(\n          (0): Conv2d(240, 240, kernel_size=(5, 5), stride=(1, 1), padding=(2, 2), groups=240, bias=False)\n          (1): BatchNorm2d(240, eps=0.001, momentum=0.01, affine=True, track_running_stats=True)\n          (2): Hardswish()\n        )\n        (2): SqueezeExcitation(\n          (avgpool): AdaptiveAvgPool2d(output_size=1)\n          (fc1): Conv2d(240, 64, kernel_size=(1, 1), stride=(1, 1))\n          (fc2): Conv2d(64, 240, kernel_size=(1, 1), stride=(1, 1))\n          (activation): ReLU()\n          (scale_activation): Hardsigmoid()\n        )\n        (3): Conv2dNormActivation(\n          (0): Conv2d(240, 40, kernel_size=(1, 1), stride=(1, 1), bias=False)\n          (1): BatchNorm2d(40, eps=0.001, momentum=0.01, affine=True, track_running_stats=True)\n        )\n      )\n    )\n    (6): InvertedResidual(\n      (block): Sequential(\n        (0): Conv2dNormActivation(\n          (0): Conv2d(40, 240, kernel_size=(1, 1), stride=(1, 1), bias=False)\n          (1): BatchNorm2d(240, eps=0.001, momentum=0.01, affine=True, track_running_stats=True)\n          (2): Hardswish()\n        )\n        (1): Conv2dNormActivation(\n          (0): Conv2d(240, 240, kernel_size=(5, 5), stride=(1, 1), padding=(2, 2), groups=240, bias=False)\n          (1): BatchNorm2d(240, eps=0.001, momentum=0.01, affine=True, track_running_stats=True)\n          (2): Hardswish()\n        )\n        (2): SqueezeExcitation(\n          (avgpool): AdaptiveAvgPool2d(output_size=1)\n          (fc1): Conv2d(240, 64, kernel_size=(1, 1), stride=(1, 1))\n          (fc2): Conv2d(64, 240, kernel_size=(1, 1), stride=(1, 1))\n          (activation): ReLU()\n          (scale_activation): Hardsigmoid()\n        )\n        (3): Conv2dNormActivation(\n          (0): Conv2d(240, 40, kernel_size=(1, 1), stride=(1, 1), bias=False)\n          (1): BatchNorm2d(40, eps=0.001, momentum=0.01, affine=True, track_running_stats=True)\n        )\n      )\n    )\n    (7): InvertedResidual(\n      (block): Sequential(\n        (0): Conv2dNormActivation(\n          (0): Conv2d(40, 120, kernel_size=(1, 1), stride=(1, 1), bias=False)\n          (1): BatchNorm2d(120, eps=0.001, momentum=0.01, affine=True, track_running_stats=True)\n          (2): Hardswish()\n        )\n        (1): Conv2dNormActivation(\n          (0): Conv2d(120, 120, kernel_size=(5, 5), stride=(1, 1), padding=(2, 2), groups=120, bias=False)\n          (1): BatchNorm2d(120, eps=0.001, momentum=0.01, affine=True, track_running_stats=True)\n          (2): Hardswish()\n        )\n        (2): SqueezeExcitation(\n          (avgpool): AdaptiveAvgPool2d(output_size=1)\n          (fc1): Conv2d(120, 32, kernel_size=(1, 1), stride=(1, 1))\n          (fc2): Conv2d(32, 120, kernel_size=(1, 1), stride=(1, 1))\n          (activation): ReLU()\n          (scale_activation): Hardsigmoid()\n        )\n        (3): Conv2dNormActivation(\n          (0): Conv2d(120, 48, kernel_size=(1, 1), stride=(1, 1), bias=False)\n          (1): BatchNorm2d(48, eps=0.001, momentum=0.01, affine=True, track_running_stats=True)\n        )\n      )\n    )\n    (8): InvertedResidual(\n      (block): Sequential(\n        (0): Conv2dNormActivation(\n          (0): Conv2d(48, 144, kernel_size=(1, 1), stride=(1, 1), bias=False)\n          (1): BatchNorm2d(144, eps=0.001, momentum=0.01, affine=True, track_running_stats=True)\n          (2): Hardswish()\n        )\n        (1): Conv2dNormActivation(\n          (0): Conv2d(144, 144, kernel_size=(5, 5), stride=(1, 1), padding=(2, 2), groups=144, bias=False)\n          (1): BatchNorm2d(144, eps=0.001, momentum=0.01, affine=True, track_running_stats=True)\n          (2): Hardswish()\n        )\n        (2): SqueezeExcitation(\n          (avgpool): AdaptiveAvgPool2d(output_size=1)\n          (fc1): Conv2d(144, 40, kernel_size=(1, 1), stride=(1, 1))\n          (fc2): Conv2d(40, 144, kernel_size=(1, 1), stride=(1, 1))\n          (activation): ReLU()\n          (scale_activation): Hardsigmoid()\n        )\n        (3): Conv2dNormActivation(\n          (0): Conv2d(144, 48, kernel_size=(1, 1), stride=(1, 1), bias=False)\n          (1): BatchNorm2d(48, eps=0.001, momentum=0.01, affine=True, track_running_stats=True)\n        )\n      )\n    )\n    (9): InvertedResidual(\n      (block): Sequential(\n        (0): Conv2dNormActivation(\n          (0): Conv2d(48, 288, kernel_size=(1, 1), stride=(1, 1), bias=False)\n          (1): BatchNorm2d(288, eps=0.001, momentum=0.01, affine=True, track_running_stats=True)\n          (2): Hardswish()\n        )\n        (1): Conv2dNormActivation(\n          (0): Conv2d(288, 288, kernel_size=(5, 5), stride=(2, 2), padding=(2, 2), groups=288, bias=False)\n          (1): BatchNorm2d(288, eps=0.001, momentum=0.01, affine=True, track_running_stats=True)\n          (2): Hardswish()\n        )\n        (2): SqueezeExcitation(\n          (avgpool): AdaptiveAvgPool2d(output_size=1)\n          (fc1): Conv2d(288, 72, kernel_size=(1, 1), stride=(1, 1))\n          (fc2): Conv2d(72, 288, kernel_size=(1, 1), stride=(1, 1))\n          (activation): ReLU()\n          (scale_activation): Hardsigmoid()\n        )\n        (3): Conv2dNormActivation(\n          (0): Conv2d(288, 96, kernel_size=(1, 1), stride=(1, 1), bias=False)\n          (1): BatchNorm2d(96, eps=0.001, momentum=0.01, affine=True, track_running_stats=True)\n        )\n      )\n    )\n    (10): InvertedResidual(\n      (block): Sequential(\n        (0): Conv2dNormActivation(\n          (0): Conv2d(96, 576, kernel_size=(1, 1), stride=(1, 1), bias=False)\n          (1): BatchNorm2d(576, eps=0.001, momentum=0.01, affine=True, track_running_stats=True)\n          (2): Hardswish()\n        )\n        (1): Conv2dNormActivation(\n          (0): Conv2d(576, 576, kernel_size=(5, 5), stride=(1, 1), padding=(2, 2), groups=576, bias=False)\n          (1): BatchNorm2d(576, eps=0.001, momentum=0.01, affine=True, track_running_stats=True)\n          (2): Hardswish()\n        )\n        (2): SqueezeExcitation(\n          (avgpool): AdaptiveAvgPool2d(output_size=1)\n          (fc1): Conv2d(576, 144, kernel_size=(1, 1), stride=(1, 1))\n          (fc2): Conv2d(144, 576, kernel_size=(1, 1), stride=(1, 1))\n          (activation): ReLU()\n          (scale_activation): Hardsigmoid()\n        )\n        (3): Conv2dNormActivation(\n          (0): Conv2d(576, 96, kernel_size=(1, 1), stride=(1, 1), bias=False)\n          (1): BatchNorm2d(96, eps=0.001, momentum=0.01, affine=True, track_running_stats=True)\n        )\n      )\n    )\n    (11): InvertedResidual(\n      (block): Sequential(\n        (0): Conv2dNormActivation(\n          (0): Conv2d(96, 576, kernel_size=(1, 1), stride=(1, 1), bias=False)\n          (1): BatchNorm2d(576, eps=0.001, momentum=0.01, affine=True, track_running_stats=True)\n          (2): Hardswish()\n        )\n        (1): Conv2dNormActivation(\n          (0): Conv2d(576, 576, kernel_size=(5, 5), stride=(1, 1), padding=(2, 2), groups=576, bias=False)\n          (1): BatchNorm2d(576, eps=0.001, momentum=0.01, affine=True, track_running_stats=True)\n          (2): Hardswish()\n        )\n        (2): SqueezeExcitation(\n          (avgpool): AdaptiveAvgPool2d(output_size=1)\n          (fc1): Conv2d(576, 144, kernel_size=(1, 1), stride=(1, 1))\n          (fc2): Conv2d(144, 576, kernel_size=(1, 1), stride=(1, 1))\n          (activation): ReLU()\n          (scale_activation): Hardsigmoid()\n        )\n        (3): Conv2dNormActivation(\n          (0): Conv2d(576, 96, kernel_size=(1, 1), stride=(1, 1), bias=False)\n          (1): BatchNorm2d(96, eps=0.001, momentum=0.01, affine=True, track_running_stats=True)\n        )\n      )\n    )\n    (12): Conv2dNormActivation(\n      (0): Conv2d(96, 576, kernel_size=(1, 1), stride=(1, 1), bias=False)\n      (1): BatchNorm2d(576, eps=0.001, momentum=0.01, affine=True, track_running_stats=True)\n      (2): Hardswish()\n    )\n  )\n  (avgpool): Identity()\n  (classifier): Identity()\n)\n```\n:::\n:::\n\n\n---\n\n## Load the pre-processing transforms form the original model {.scrollable}\n\nWe need to apply the same transforms to the images that we *feed* to the model to have the expected behavior.\n\n- [ ] Get the origi
…
